_________________________________________________________________
 Layer (type)                Output Shape              Param #
=================================================================
 conv2d (Conv2D)             (None, 320, 180, 32)      896

 activation (Activation)     (None, 320, 180, 32)      0

 max_pooling2d (MaxPooling2D  (None, 160, 90, 32)      0
 )

 conv2d_1 (Conv2D)           (None, 160, 90, 32)       9248

 activation_1 (Activation)   (None, 160, 90, 32)       0

 max_pooling2d_1 (MaxPooling  (None, 80, 45, 32)       0
 2D)

 conv2d_2 (Conv2D)           (None, 80, 45, 64)        18496

 activation_2 (Activation)   (None, 80, 45, 64)        0

 max_pooling2d_2 (MaxPooling  (None, 40, 22, 64)       0
 2D)

 conv2d_3 (Conv2D)           (None, 40, 22, 64)        36928

 activation_3 (Activation)   (None, 40, 22, 64)        0

 max_pooling2d_3 (MaxPooling  (None, 20, 11, 64)       0
 2D)

 conv2d_4 (Conv2D)           (None, 20, 11, 32)        18464

 activation_4 (Activation)   (None, 20, 11, 32)        0

 max_pooling2d_4 (MaxPooling  (None, 10, 5, 32)        0
 2D)

 flatten (Flatten)           (None, 1600)              0

 dense (Dense)               (None, 64)                102464

 activation_5 (Activation)   (None, 64)                0

 dropout (Dropout)           (None, 64)                0

 dense_1 (Dense)             (None, 2)                 130

 activation_6 (Activation)   (None, 2)                 0

=================================================================
Total params: 186,626
Trainable params: 186,626
Non-trainable params: 0
_________________________________________________________________
Epoch 1/50
896/896 [==============================] - 1530s 2s/step - loss: 0.2383 - accuracy: 0.8993 - val_loss: 0.0483 - val_accuracy: 0.9835
Epoch 2/50
896/896 [==============================] - 1697s 2s/step - loss: 0.0540 - accuracy: 0.9826 - val_loss: 0.1001 - val_accuracy: 0.9700
…
